…
on":"Projects/BrainTumor_AI/02_phase_1_research/01_model_development/#model-architecture","title":"Model Architecture","text":"<p>The architecture consists of a series of convolutional and max-pooling layers for hierarchical feature extraction, followed by fully connected layers for classification. A dropout layer is included to reduce overfitting and improve generalization.</p>"},{"location":"Projects/BrainTumor_AI/02_phase_1_research/01_model_development/#layer-wise-architecture-summary","title":"Layer-wise Architecture Summary","text":"Layer Type Output Shape Parameters Conv2D (31 filters) (254, 254, 31) 868 MaxPooling2D (127, 127, 31) 0 Conv2D (65 filters) (125, 125, 65) 18,200 MaxPooling2D (62, 62, 65) 0 Conv2D (128 filters) (60, 60, 128) 75,008 MaxPooling2D (30, 30, 128) 0 Conv2D (128 filters) (28, 28, 128) 147,584 MaxPooling2D (14, 14, 128) 0 Flatten (25088,) 0 Dense (128 units) (128,) 3,211,392 Dropout (rate = 0.5) (128,) 0 Dense (4 units) (4,) 516 <p>Total Parameters: 10,360,706 Trainable Parameters: 3,453,568 Model Size: ~39.5 MB</p>"},{"location":"Projects/BrainTumor_AI/02_phase_1_research/01_model_development/#design-considerations","title":"Design Considerations","text":"<ul> <li>Custom Architecture: A custom CNN was chosen over
…
curacy, and trustworthiness of the pipeline.</li> <li>Simulate real-world use cases where users may accidentally upload non-brain images.</li> </ul>"},{"location":"Projects/BrainTumor_AI/03_phase_2_app/04_validator_model/#architecture-overview","title":"\ud83c\udfd7\ufe0f Architecture Overview","text":"<p>The model follows a custom-built Convolutional Neural Network (CNN) with batch normalization, max-pooling, and dropout regularization. Below is a summary of its architecture:</p> <pre><code>Input Image Shape: (256, 256, 1)\n</code></pre> Layer Type Output Shape Parameters Conv2D (32 filters) (222, 222, 32) 896 BatchNormalization (222, 222, 32) 128 Conv2D (64 filters) (220, 220, 64) 18,496 BatchNormalization (220, 220, 64) 256 MaxPooling2D (110, 110, 64) 0 Conv2D (128 filters) (108, 108, 128) 73,856 MaxPooling2D (54, 54, 128) 0 Conv2D (64 filters) (52, 52, 64) 73,792 MaxPooling2D (26, 26, 64) 0 Flatten (43264) 0 Dense (128 units) (128) 5,537,920 Dropout (rate=0.3) (128) 0 Dense (1 unit, sigmoid) (1) 129 <p>Total Parameters: 5,705,473 Trainable: 5,705,281 Non-trainable: 192</p>"},{"location":"Projects/BrainTumor_AI/03_phase_2_app/04_validator_model/#dataset-composition","title":"\ud83e\uddea Dataset Composition","text":"<p>The final dataset used for training was constructed after aggrega
…
